.model/model_15010714.ckpt (torch, 509627 bytes, 18 tensors)

net.0.weight f4 [80, 40]
0	0xbca0f708	-0.019649044
1	0x3d70187f	0.05861711
2	0x3d9ab67f	0.075543396
3	0x3cc69eed	0.024245704
4	0x3bc6ac6c	0.0060630348
5	0xbd18d266	-0.037310027
6	0xbde6eb8f	-0.11275398
7	0xbdd57375	-0.10422412
8	0xbc06c767	-0.008226252
9	0x3d7dfde9	0.062009726
10	0x3e658b07	0.22416316
11	0x3df3e4a8	0.11908847
12	0x3cf81c41	0.03028691
13	0xbdb10d62	-0.08645131
14	0xbe0c5d45	-0.13707455
15	0xbe3c232e	-0.18372795
16	0xbdad7d18	-0.08471125
17	0xbc2be53b	-0.0104916645
18	0x3d5453e6	0.051837824
19	0x3e2f914b	0.17145269
20	0x3d7b393f	0.06133389
21	0xbdc57a77	-0.09642499
22	0xbe413aaa	-0.18870035
23	0xbe208717	-0.15676533
24	0x3de747f4	0.11293021
25	0x3e82ebc3	0.25570497
26	0x3d5633cc	0.05229549
27	0xbe06f851	-0.13180663
28	0x3e12a165	0.1431938
29	0x3e4acd84	0.1980496
30	0xbe18180b	-0.14852922
31	0xbe7fac0b	-0.24967973
32	0xbd348fe8	-0.044082552
33	0x3c68a10d	0.014198554
34	0xbce17381	-0.027520897
35	0xbd7a3134	-0.06108208
36	0xbdf8b83d	-0.12144516
37	0x3db70c8c	0.0893794
38	0x3e86abcc	0.26302946
39	0xbd4150e3	-0.04719628
40	0x3c8d164d	0.017222548
41	0x3e6c54d8	0.2307924
42	0xbebb3adf	-0.36568353
43	0xbd5e8627	-0.054327156
44	0x3d20c29e	0.0392481
45	0x3c8abd03	0.016935831
46	0x3d5e2f24	0.054244176
47	0xbd1d08a5	-0.038338322
48	0xbc735480	-0.014851689
49	0x3e118e72	0.14214495
50	0x3e432f26	0.19060954
51	0xbd6e6cab	-0.058209103
52	0xbd87c62e	-0.06629597
53	0xbe66c5d7	-0.22536407
54	0xbe652e38	-0.22380912
55	0xbdbfb26d	-0.09360204
56	0x3dd96849	0.10615594
57	0x3e27f4bb	0.16401951
58	0x3e3426ce	0.17592928
59	0x3de26eaa	0.11056264
60	0xbc5c2e90	-0.013438836
61	0xbe0fdd42	-0.14049247
62	0xbe830404	-0.25589
63	0xbe7031ab	-0.23456447
64	0x3b9395bd	0.004503934
65	0x3e51e1a9	0.20496239
66	0x3e6aa59f	0.22914742
67	0x3b386ac0	0.00281398
68	0xbddbe1c1	-0.107364185
69	0xbd1a26db	-0.03763471
70	0xbc314360	-0.010819286
71	0x3e062b04	0.13102347
72	0x3d82ea64	0.06392363
73	0xbd7cc7bf	-0.06171393
74	0xbdf174fb	-0.117898904
75	0xbc426859	-0.011865699
76	0x3e0e562b	0.13900058
77	0x3e22df3e	0.15905473
78	0x3e0f4c90	0.1399405
79	0xbe48d76a	-0.19613424
80	0xbc7ea459	-0.015542113
81	0x3c916b61	0.017751398
82	0xbdc62b71	-0.096762545
83	0x3deb93b6	0.11502783
84	0x3db5b033	0.08871498
85	0x3d7546ac	0.05988185
86	0x3da5399b	0.08067628
87	0x3d620525	0.055180687
88	0xbbd3cf36	-0.0064639105
89	0xbdb1177e	-0.08647059
90	0xbd7e8fd0	-0.06214887
91	0x3dc0f3e1	0.09421516
92	0x3d0ce819	0.034401033
93	0x3ddda8d2	0.108232155
94	0x3dd3053c	0.10303733
95	0x3dce4ee3	0.1007364
96	0x3d4fbec0	0.050719023
97	0xbdd9d647	-0.10636573
98	0xbe1d26c1	-0.15346815
99	0x3c85827f	0.016297577
100	0x3e33223e	0.17493531
101	0x3df17328	0.117895424
102	0xbe328d82	-0.17436793
103	0xbeba9d2d	-0.3644804
104	0xbe95d45e	-0.29263586
105	0xbdf837dc	-0.12120029
106	0x3d07a37d	0.0331149
107	0x3e139ac5	0.14414509
108	0x3dafb419	0.08579273
109	0xbd36cee6	-0.044630907
110	0x3c37bfa7	0.011215127
111	0x3de205f8	0.11036295
112	0xbc85d470	-0.01633665
113	0xbe302c0f	-0.17204307
114	0xbe94fed0	-0.29100657
115	0xbc6ffb36	-0.014647296
116	0x3d79ba1e	0.06096851
117	0x3e40d325	0.18830545
118	0x3db077d3	0.08616605
119	0x3dd6d98e	0.10490714
120	0xbdb2f12a	-0.08737405
121	0xbe48f8f6	-0.19626221
122	0xbcddbde2	-0.027068082
123	0x3dbbe674	0.09174815
124	0xbcdf30e2	-0.027244989
125	0xbdd4119e	-0.10354923
126	0x3a5257fa	0.0008023974
127	0x3e6f6af4	0.23380643
128	0x3e5e963e	0.21737
129	0x3e338fb1	0.17535283
130	0x3db26f19	0.087125964
131	0xbd3ac498	-0.045597643
132	0xbd186726	-0.037207745
133	0xbd067402	-0.032825477
134	0xbdd97d9a	-0.1061966
135	0xbe31d060	-0.17364645
136	0xbe13ec21	-0.14445545
137	0xbc42bde8	-0.0118860975
138	0x3defed02	0.117151275
139	0x3e9d32e1	0.3070288
140	0x3e94b934	0.2904755
141	0x3ccd4491	0.02505711
142	0xbe4ed928	-0.20200026
143	0xbe921698	-0.28532863
144	0xbd6d203f	-0.05789208
145	0xbda1beda	-0.0789773
146	0xbed26411	-0.4109197
147	0xbef516fa	-0.47869092
148	0xbd726dfe	-0.059186928
149	0x3eb01020	0.34387302
150	0x3eba3b8e	0.36373562
151	0x3e60ee2f	0.2196586
152	0x3e691dd5	0.22765286
153	0x3e508099	0.20361556
154	0x3d79a2fb	0.060946446
155	0xbc1d90bc	-0.009617027
156	0xbdce3805	-0.10069279
157	0xbe4859b8	-0.19565475
158	0xbdef39fd	-0.11680982
159	0x3d26a813	0.04068763
160	0x3d67c421	0.056583527
161	0xbe0e9818	-0.13925207
162	0x3e0876d0	0.13326573
163	0x3d157584	0.036489025
164	0xbcc3cfda	-0.023902822
165	0xbc8354db	-0.016031673
166	0x3e05d315	0.13068803
167	0xbb6e9d3a	-0.0036409632
168	0xbdb92ad5	-0.09041373
169	0xbd92ff36	-0.07177584
170	0x3d50da0e	0.050989203
171	0x3e141b98	0.14463651
172	0x3d531890	0.051537097
173	0xbdd55a6a	-0.10417636
174	0xbe1c97d5	-0.15292294
175	0xbcf6cf7f	-0.030128239
176	0x3e2a56a7	0.16634618
177	0x3e15df62	0.14635995
178	0xbcd6f2b6	-0.02623878
179	0xbe8b8b55	-0.2725474
180	0x3a94d125	0.0011353834
181	0x3e968ff5	0.29406705
182	0xbd7ea112	-0.062165327
183	0xbe827bd4	-0.25485098
184	0x3d839b3b	0.06426092
185	0x3e5c3014	0.21502715
186	0xbd6754de	-0.05647742
187	0xbe44a800	-0.19204712
188	0x3cfbaae5	0.030721137
189	0x3e3872ca	0.18012539
190	0xbe2ef8f4	-0.17087156
191	0xbd98be52	-0.07458176
192	0x3de2bdee	0.110713825
193	0x3a2bc7a7	0.0006552883
194	0xbe057a66	-0.13034973
195	0x3dce92b6	0.10086577
196	0x3e273e9c	0.16332477
197	0xbde06ef8	-0.109586656
198	0xbe31f3b2	-0.17378119
199	0x3dbb3e39	0.091427274
200	0x3e435e1e	0.19078872
201	0x3e965a61	0.2936583
202	0xbe5c860a	-0.21535507
203	0x3d7ea8e6	0.062172793
204	0x3d6a9cce	0.057278447
205	0xbe0de124	-0.13855416
206	0xbe36cc45	-0.1785136
207	0xbd9e48a6	-0.077287
208	0xbe15b34e	-0.1461918
209	0x3dcbf153	0.09958138
210	0x3e1985d0	0.14992452
211	0x3bd075b2	0.0063616866
212	0xbce28ccb	-0.027655026
213	0xbe7c909e	-0.24664542
214	0xbe3a1be1	-0.18174697
215	0xbdea46c0	-0.11439276
216	0x3e0fcdd2	0.14043358
217	0x3e97fc61	0.29684737
218	0x3e827840	0.25482368
219	0x3d146bea	0.036235727
220	0xbeb140ca	-0.34619743
221	0xbef0ffb4	-0.47070086
222	0xbe3ef48d	-0.18647976
223	0x3e86a933	0.26300964
224	0x3e959a1a	0.29219133
225	0x3d1a58db	0.037682395
226	0xbc667c40	-0.014067709
227	0x3d98afb5	0.074553885
228	0x3daa8734	0.08326569
229	0xbd980f77	-0.07424825
230	0xbd1ab83c	-0.037773356
231	0x3df8ba31	0.12144888
232	0x3d972b35	0.07381288
233	0x3d05fe7f	0.03271341
234	0x3ddbe153	0.107363366
235	0xbd1eca13	-0.03876693
236	0x3c5b0a8c	0.013369214
237	0xbbea622f	-0.0071528177
238	0xbda02eab	-0.07821401
239	0xbe1aa4bf	-0.15101908
240	0x3cc7797f	0.024349926
241	0x3f196182	0.5991441
242	0x3d9d9eef	0.0769633
243	0xbe68e99b	-0.22745363
244	0xbe2bd0f9	-0.16778935
245	0xbe99c5bb	-0.3003367
246	0xbe167e7e	-0.1469669
247	0x3b86be1c	0.0041120183
248	0x3da0d1fd	0.07852552
249	0x3d3753cf	0.04475766
250	0xbd664582	-0.05621863
251	0xbe486249	-0.19568743
252	0xbdf4502a	-0.119293526
253	0xbe107154	-0.14105731
254	0xbd8fb027	-0.0701602
255	0xbd7a7513	-0.061146807

net.0.bias f4 [80]
0	0xbe9113c9	-0.28335407
1	0x3f75ad4e	0.95967567
2	0xbf3f4b7a	-0.74724543
3	0xbece06df	-0.40239617
4	0xbf1dca07	-0.61636394
5	0x3f149d78	0.5805278
6	0x3e7ad6a8	0.24495947
7	0xbe98ffa7	-0.29882547
8	0x3f7b6aa5	0.982096
9	0x3f1b390b	0.60633916
10	0x3e611a2c	0.2198264
11	0xbec79900	-0.38983917
12	0xbf9082f9	-1.128997
13	0x3f002c00	0.5006714
14	0xbcba508d	-0.022743488
15	0x3ebb9cab	0.36642966
16	0xbef9b707	-0.4877245
17	0xbf782d4d	-0.96944124
18	0xbf2f0fc0	-0.6838341
19	0x3faf55c6	1.3698051
20	0x3d8dc139	0.0692162
21	0x3f180ea6	0.5939735
22	0xbd7ecd94	-0.062207773
23	0xbf36be6f	-0.7138433
24	0x3eae1450	0.33999872
25	0xbe3f570b	-0.18685548
26	0xbe317bc9	-0.17332377
27	0x3f624b61	0.8839627
28	0xbfc2e8a4	-1.5227246
29	0x3ee460a6	0.44604987
30	0x3f9f526f	1.2447032
31	0x3eb98e4d	0.3624138
32	0xbe952d86	-0.29136294
33	0xbf31a9bc	-0.6939962
34	0x3fc58d30	1.5433712
35	0x3eb1e6e4	0.34746468
36	0xbd4717a9	-0.04860655
37	0xbe4cc3cc	-0.19996566
38	0xbf296624	-0.6617148
39	0x3f0e73f0	0.55645657
40	0x3eb4c8f9	0.3530958
41	0xbbe273a9	-0.0069107604
42	0x3e9014b1	0.28140786
43	0xbda1ed34	-0.07906571
44	0xbf0e8ade	-0.55680645
45	0xbe62eadd	-0.22159906
46	0xbe874067	-0.26416323
47	0xbf4a4f0e	-0.7902688
48	0x3ef0a795	0.47002855
49	0xbe698113	-0.22803144
50	0xbe003cca	-0.12523189
51	0x3f890795	1.0705439
52	0xbfa56b6b	-1.2923406
53	0x3f562c49	0.83661324
54	0xbe51c649	-0.20485796
55	0x3ea07b30	0.31343985
56	0xbe69aa5a	-0.2281889
57	0x3f17961a	0.5921341
58	0xbe5239c9	-0.20529856
59	0x3e5a3b61	0.21311714
60	0x3e923b3b	0.28560814
61	0x3e2906f8	0.16506565
62	0xbe83a8ee	-0.2571482
63	0xbe184970	-0.14871764
64	0xbda0bd8e	-0.07848655
65	0xbe2fa4d3	-0.17152719
66	0xbe09ad86	-0.134451
67	0xbe8c93b1	-0.2745643
68	0xbe5b201d	-0.21398969
69	0x3f4b83ec	0.7949817
70	0x3f8e7fe5	1.113278
71	0xbf3194fa	-0.69367945
72	0x3f32b804	0.69812036
73	0x3e2d2aa2	0.16910794
74	0xbf6c0bb5	-0.92205364
75	0xbe22343f	-0.15840243
76	0xbefa93db	-0.4894093
77	0xbe7831fb	-0.24237816
78	0xbec40148	-0.38282228
79	0x3e9ef47b	0.310459

net.1.self_attn.in_proj_weight f4 [240, 80]
0	0xbcb9e7b1	-0.022693487
1	0x3daa9776	0.0832967
2	0x3e097d48	0.13426697
3	0xbb9b6e74	-0.0047433916
4	0xbd4d07f5	-0.050056417
5	0x3e7725ca	0.24135509
6	0x3dc4a3f2	0.096015826
7	0xbee05ca2	-0.43820673
8	0xbda067c3	-0.07832291
9	0x3d7ebe9e	0.062193505
10	0x3dcfffd0	0.10156214
11	0x3dadcc76	0.084862635
12	0xbd05ffa0	-0.032714486
13	0x3e4227cd	0.18960495
14	0x3cb2919a	0.021797944
15	0xbb6d0c99	-0.003617084
16	0xbdc2be3f	-0.09508943
17	0xbef844d6	-0.48490018
18	0xbcf01c1d	-0.02931028
19	0x3c44b14c	0.0120051615
20	0xbdc25c2f	-0.09490239
21	0xbe3e5b08	-0.18589413
22	0xbe617df8	-0.2202071
23	0x3e072dfe	0.13201138
24	0xbb5f73ce	-0.0034096125
25	0x3d4f9fb3	0.05068941
26	0x3e972b01	0.29524997
27	0x3e4ab3c3	0.19795136
28	0x3c7c0fb1	0.0153846005
29	0xbbd647c6	-0.006539318
30	0xbe06226b	-0.13099067
31	0x3e20e87d	0.15713687
32	0xbd4983e4	-0.049198046
33	0xbcce7a7a	-0.025204886
34	0x3e19308e	0.14959928
35	0x3b9d0b4c	0.0047926065
36	0x3cadc8a1	0.021213831
37	0xbd29e4fe	-0.04147815
38	0xbc70656e	-0.01467262
39	0x3d8bea2c	0.06831774
40	0x3e41f483	0.1894093
41	0xbe132243	-0.14368539
42	0xbca70b3c	-0.0203911
43	0xbd099ff3	-0.033599805
44	0x3d9c9d80	0.07647228
45	0x3d7bb274	0.061449483
46	0xbd0584c6	-0.032597326
47	0x3c7e2ffc	0.01551437
48	0x3e6a87f8	0.2290343
49	0xbd9fe52b	-0.07807382
50	0xbd12bd6e	-0.035825185
51	0x3ddce3c2	0.10785629
52	0x3d82b54e	0.063822374
53	0xbd864e21	-0.06557871
54	0x3e230b5d	0.15922303
55	0x3d38dec5	0.045134325
56	0x3da71a23	0.08159282
57	0xbd864622	-0.065563455
58	0xbcc32e66	-0.023825835
59	0x3c400bc3	0.011721554
60	0x3d1a6baa	0.037700333
61	0x3e02deb9	0.12780274
62	0x3efdb962	0.49555498
63	0x3dee5724	0.116377145
64	0xbe06c2fd	-0.1316032
65	0x3c1b163a	0.009465748
66	0x3e016528	0.12636244
67	0xbc897e77	-0.016783936
68	0xbe1d28f5	-0.15347655
69	0x3d652e67	0.055952456
70	0xbc90a719	-0.017657803
71	0x3c2ffaf6	0.010740986
72	0xbe96d2c1	-0.29457667
73	0x3e164b94	0.14677268
74	0xbe499d46	-0.19688901
75	0xbca59153	-0.020210898
76	0xbdc4fee9	-0.09618933
77	0x3ca02a46	0.019551408
78	0xbe72a8d5	-0.23697217
79	0x3ea43ad7	0.3207614
80	0xbdb09e85	-0.08623985
81	0x3e143ee7	0.1447712
82	0x3c571172	0.013126718
83	0xbd3ef9c3	-0.04662491
84	0xbde3cf93	-0.11123576
85	0x3dfc5826	0.123215005
86	0x3cb5d451	0.022195967
87	0xbed17cae	-0.40915436
88	0x3e8b0a86	0.27156466
89	0x3eb3fb50	0.35152674
90	0x3d9468f6	0.07246582
91	0x3d365d83	0.044522773
92	0xbe3070c4	-0.17230517
93	0x3e1bba18	0.15207708
94	0xbd4bf0d5	-0.049790222
95	0xbdca84ad	-0.09888587
96	0xbdb798c7	-0.08964687
97	0xbdfd9f6e	-0.123839244
98	0xbd986d44	-0.07442716
99	0x3e3a2ddb	0.18181555
100	0x3e87587b	0.26434693
101	0xbdf8f7ee	-0.12156664
102	0xbe0a72c9	-0.1352035
103	0xbe2b723d	-0.16742797
104	0x3d651fb4	0.055938438
105	0x3d05a4a2	0.03262771
106	0x3e5c517d	0.2151546
107	0x3ea79d9f	0.32737443
108	0xbe12c685	-0.14333542
109	0xbc46ae32	-0.012126492
110	0x3c9f6e79	0.019461857
111	0xbce4fb47	-0.02795185
112	0xbc6796ae	-0.014135046
113	0xbd9d9362	-0.07694127
114	0x3ed41420	0.41421604
115	0x3d490528	0.049077183
116	0xbca3d88e	-0.020000722
117	0x3bea37c8	0.007147763
118	0xbe243c24	-0.16038567
119	0x3d61e177	0.05514666
120	0x3dffb4dc	0.12485668
121	0xbdd8248d	-0.105538465
122	0x3cf1b6ae	0.029506054
123	0x3df1d0a5	0.11807374
124	0x3ca3a160	0.01997441
125	0x3b8e8c7c	0.004350243
126	0xbe56f9db	-0.2099375
127	0xbd99bc8f	-0.07506668
128	0x3e0f6019	0.14001502
129	0xbd96afa5	-0.0735772
130	0xbd9bb0eb	-0.07602104
131	0x3e72cdaa	0.23711267
132	0xbde91ac6	-0.1138206
133	0x3ddaafc5	0.10678057
134	0x3e1baf9d	0.1520371
135	0xbd1f1506	-0.03883841
136	0x3d6e39a1	0.058160428
137	0xbd6f76fe	-0.05846309
138	0xbaa6d12f	-0.0012727136
139	0x3e5513b2	0.20808294
140	0xbcb8b5b8	-0.022547588
141	0x3d497a16	0.049188696
142	0x3e17fef9	0.14843358
143	0x3e7975e8	0.24361384
144	0xbc858fad	-0.016303862
145	0xbbc9019d	-0.0061342255
146	0x3e7bfcf3	0.24608211
147	0xbd984561	-0.07435108
148	0xbe429a8f	-0.19004272
149	0x3e178b44	0.1479922
150	0x3e158bc4	0.14604098
151	0x3efdcfa2	0.49572474
152	0xbe29efe0	-0.16595411
153	0x3e19f233	0.15033798
154	0xbe0224a8	-0.12709296
155	0xbe2ffdd3	-0.1718667
156	0xbd1306e9	-0.035895262
157	0xbc266a43	-0.010157171
158	0xbdafad20	-0.08577943
159	0x3e16b3bd	0.14717002
160	0x3d8177c2	0.0632167
161	0xbe265461	-0.16243125
162	0x3e1399ac	0.1441409
163	0xbd12aa04	-0.03580667
164	0x3e0bcf65	0.13653333
165	0xbe58bbb2	-0.2116535
166	0xbdd6956f	-0.10477721
167	0x3e83ec12	0.25766045
168	0xbe9e41c0	-0.30909538
169	0xbe887fdb	-0.26660046
170	0xbe211184	-0.15729338
171	0xbc8ef515	-0.017450849
172	0x3e8bc2c9	0.27297047
173	0xbe56c166	-0.20972213
174	0x3d6425af	0.0557
175	0x3e14c266	0.14527282
176	0x3d794a12	0.060861655
177	0x3dd64e69	0.10464174
178	0x3db59800	0.08866882
179	0xbe04d22a	-0.12970796
180	0xbe831e74	-0.2560917
181	0x3d924cfe	0.07143591
182	0x3dfabd8b	0.12243184
183	0x3e39e3e9	0.18153347
184	0xbcbf232d	-0.023332203
185	0xbd5e5175	-0.054276902
186	0xbda39ff3	-0.07989492
187	0xbe0b9fba	-0.1363515
188	0x3e4cddec	0.20006531
189	0x3d2bfbcc	0.04198818
190	0xbd727e51	-0.059202496
191	0x3dc73c1a	0.0972826
192	0x3d100f78	0.035171002
193	0x3d4b9610	0.049703658
194	0xbe8c02ec	-0.2734598
195	0xbcd18bd1	-0.025579365
196	0x3d9d1171	0.07669342
197	0x3d86271a	0.06550427
198	0x3e197159	0.14984645
199	0xbd5f6ae4	-0.0545453
200	0xbe09290f	-0.13394569
201	0xbc110d5a	-0.008853281
202	0xbacd7ee2	-0.0015678073
203	0xbc7fdb11	-0.015616194
204	0xbda1c709	-0.07899291
205	0xbdbd18d4	-0.09233251
206	0x3ea9559d	0.3307313
207	0x3dc578c1	0.096421726
208	0xbda4b463	-0.080422185
209	0x3d9946b7	0.07484191
210	0x3d1ac7d5	0.03778823
211	0xbe6f6aa7	-0.23380528
212	0x3e0a9b72	0.1353586
213	0xbd8c3ad8	-0.06847161
214	0xbe2c3027	-0.16815244
215	0x3d997a72	0.07494058
216	0x3d0e29f7	0.03470799
217	0x3dd25464	0.102700025
218	0xbd9fc09d	-0.0780041
219	0xbe2c570d	-0.16830082
220	0xbd45227d	-0.048128594
221	0xbd11c24d	-0.03558569
222	0xbe3c5b6d	-0.18394251
223	0xbe2661dd	-0.1624827
224	0x3e207818	0.15670812
225	0xbcb18810	-0.021671325
226	0xbd9686f9	-0.07349963
227	0xbd9f4a9f	-0.07777905
228	0x3df23e28	0.118282616
229	0xbe1a0380	-0.15040398
230	0xbe7532ce	-0.23945162
231	0xbf1d905b	-0.61548394
232	0xbcc8fc61	-0.024534406
233	0xbd9a24c0	-0.07526541
234	0x3e41cd5b	0.18925993
235	0x3ddd98ed	0.10820184
236	0x3d5e2d25	0.054242272
237	0x3c546c5c	0.012965288
238	0x3e29aa25	0.16568811
239	0xbe34043c	-0.1757974
240	0xbdd5975a	-0.10429259
241	0xbe26656b	-0.16249625
242	0x3de14875	0.11000148
243	0xbe56c689	-0.20974173
244	0x3dd6bd2a	0.10485299
245	0xbe8f75ff	-0.2801971
246	0xbed9b9e2	-0.4252463
247	0x3e9bd72e	0.30437607
248	0xbe6f3e1b	-0.23363535
249	0x3dc2220f	0.094791524
250	0xbd5f2c3e	-0.054485552
251	0x3d51acf5	0.051190335
252	0x3ddd5b98	0.10808486
253	0xbe460d73	-0.19341068
254	0xbc20c3dc	-0.0098123215
255	0xbd93800a	-0.07202156

net.1.self_attn.in_proj_bias f4 [240]
0	0xbe92a24d	-0.2863945
1	0x3f7d5347	0.98955196
2	0xbf8e89c2	-1.113579
3	0xbeb76550	-0.35819483
4	0xbdff9bde	-0.12480901
5	0x3e891316	0.26772374
6	0xbdcc5a9e	-0.09978221
7	0xbd6958e5	-0.056969542
8	0x3e9a79ed	0.30171147
9	0xbdd40d50	-0.10354102
10	0xbe562ba0	-0.20915079
11	0x3f72e57d	0.9488142
12	0x3f170b55	0.59001666
13	0x3e2290d0	0.15875554
14	0xbfa8e229	-1.3194019
15	0x3d1f36f7	0.038870778
16	0xbf1315a0	-0.5745487
17	0xbf965591	-1.1744863
18	0xbfb122ff	-1.3838805
19	0xbf2b1447	-0.66827816
20	0xbe8842ae	-0.26613373
21	0xbe062a4e	-0.13102075
22	0x3df99ab9	0.12187714
23	0x3dce134f	0.100622766
24	0xbe931f01	-0.28734592
25	0xbd80ff13	-0.062986515
26	0xbf48e1af	-0.78469366
27	0x3e4e7bfd	0.20164485
28	0xbe18042e	-0.14845344
29	0x3decea39	0.11568112
30	0x3e4793fe	0.19490048
31	0x3e9cff61	0.3066359
32	0x3e0635f6	0.13106522
33	0xbf226025	-0.63427955
34	0x3d583d0b	0.05279259
35	0x3f641005	0.89086944
36	0xbf2e8dae	-0.68184936
37	0x3dd828ff	0.105546944
38	0xbd4e352f	-0.05034369
39	0xbef2101b	-0.47277912
40	0x3d94bcae	0.0726255
41	0x3eb3a340	0.35085487
42	0xbdadd95e	-0.08488725
43	0xbc4eecf3	-0.012629735
44	0x3cc6f477	0.024286492
45	0x3f70cc14	0.940614
46	0x3f4ec33d	0.8076666
47	0x3eff9e4a	0.49925452
48	0x3e2bdc4f	0.1678326
49	0xbdbb78c3	-0.09153893
50	0x3d84a793	0.06477275
51	0x3f85cdf7	1.045348
52	0xbdcc9278	-0.09988874
53	0xbf875832	-1.057379
54	0xbfb106fd	-1.3830258
55	0x3cd10901	0.025516989
56	0x3de121a1	0.10992742
57	0xbfb83738	-1.4391851
58	0x3f273366	0.653128
59	0x3ecea6e5	0.40361705
60	0x3df9cf1f	0.12197708
61	0x3e974adc	0.295493
62	0xbe4233d6	-0.18965086
63	0x3e562f90	0.20916581
64	0x3eb495c4	0.35270512
65	0x3eaa07e5	0.33209148
66	0xbeaacfd7	-0.33361694
67	0x3f15a44d	0.5845383
68	0x3f860869	1.0471317
69	0x3e59dc7a	0.21275511
70	0x3f66ed91	0.9020625
71	0xbdfb7694	-0.12278476
72	0x3e048a3e	0.1294336
73	0x3e9d71b4	0.3075081
74	0x3e889b98	0.2668121
75	0xbe57234c	-0.21009558
76	0xbe885899	-0.26630095
77	0xbf0918c8	-0.5355344
78	0x3faedc13	1.3660911
79	0x3eae97bc	0.3410014
80	0xbdcd424a	-0.10022409
81	0x3d8c7aba	0.06859346
82	0xbccd06de	-0.025027689
83	0xbca5f4bd	-0.020258302
84	0x3a37585e	0.0006994064
85	0x3ccb0f0c	0.024787448
86	0xbd8968a8	-0.06709415
87	0x3d4ac4e9	0.049504194
88	0x3d5bedc8	0.053693563
89	0xbde00b0f	-0.10939609
90	0xbd8ddfab	-0.06927427
91	0x3d181a88	0.037134677
92	0x3dcd0ac9	0.10011823
93	0x3d6013f2	0.05470652
94	0xbdcd8708	-0.10035521
95	0x3d85fc8e	0.065423116
96	0xbd7b3f5e	-0.06133973
97	0xbdac255b	-0.084055625
98	0xbd6b6fa5	-0.05747952
99	0xbc0ef5b0	-0.008725569
100	0xbcb00795	-0.02148799
101	0xbd97fc2a	-0.07421143
102	0xbda8185a	-0.0820777
103	0x3c13e26c	0.009026151
104	0x3cfac31a	0.03061061
105	0x3c497061	0.01229486
106	0xbd9ee81c	-0.07759115
107	0x3cbc78d1	0.023006829
108	0xbe0861fa	-0.13318625
109	0x3cc6713c	0.024223916
110	0x3cecfb5d	0.028928453
111	0xbd332948	-0.04374054
112	0x3daa426c	0.0831345
113	0xbde3009c	-0.110841006
114	0x3d20472c	0.039130375
115	0x3d7f59fa	0.062341668
116	0xbc8f5db3	-0.017500734
117	0xbd59d500	-0.05318165
118	0xbcf201d5	-0.02954189
119	0xbc772d4d	-0.015086484
120	0xbdc3f7e8	-0.09568769
121	0xbdf8f57f	-0.121562
122	0xbd1a5389	-0.03767732
123	0xbd972d6f	-0.07381713
124	0xbcace1ad	-0.021103704
125	0x3de1a5e5	0.1101797
126	0x3e2756d3	0.16341715
127	0xbd69ce5e	-0.057081573
128	0x3d39c1fe	0.04535102
129	0xbd21d4b0	-0.039509475
130	0x3d0180b4	0.03161688
131	0x3dc173a4	0.09445885
132	0x3dcd52cb	0.10025557
133	0xbcd8b868	-0.02645512
134	0xbe6727b1	-0.22573735
135	0xbda40154	-0.08008066
136	0x3ced8fdd	0.028999263
137	0xbe2e83d0	-0.1704247
138	0xba09e0df	-0.00052596437
139	0xbb5b523d	-0.0033465766
140	0x3ddcb143	0.107759975
141	0x3db5ce48	0.08877236
142	0x3c990be5	0.01868243
143	0x3d6e3945	0.058160085
144	0x3c86bc8d	0.01644733
145	0x3d17588d	0.036949683
146	0xbde0ad85	-0.10970596
147	0x3dc4f050	0.096161485
148	0x3bfe2a72	0.0077565247
149	0xbbd01d33	-0.006351137
150	0x3de6edcb	0.11275824
151	0x3bbbe2c2	0.0057338187
152	0x3e19aa1f	0.15006302
153	0x3d088695	0.033331472
154	0xbd428539	-0.047490332
155	0x3e11fba0	0.14256144
156	0xbc552489	-0.013009199
157	0x3d206eb4	0.039168075
158	0x3e1c6dee	0.1527631
159	0x3d5a3c91	0.053280417
160	0x3da42449	0.08014733
161	0xbdd75e27	-0.10516005
162	0x3ea900b0	0.33008337
163	0x3ee52142	0.44751936
164	0xbef2864a	-0.4736808
165	0xbe5f63c1	-0.21815397
166	0x3d71d81a	0.05904398
167	0xbebf5be8	-0.37374806
168	0xbbf94552	-0.0076071406
169	0x3f09fdeb	0.53903073
170	0x3e44d5ae	0.19222137
171	0x3f1b36fa	0.6063076
172	0xbeaa594d	-0.33271256
173	0x3efa7bfe	0.48922724
174	0xbf2fe6f4	-0.6871178
175	0xbe2b0511	-0.16701151
176	0xbf14612c	-0.5796077
177	0xbe813366	-0.25234526
178	0x3ebe7f7a	0.37206632
179	0x3e405fbc	0.1878652
180	0xbbcb3949	-0.0062018973
181	0xbe0098c2	-0.12558272
182	0xbcf364cd	-0.029711151
183	0x3e844fe3	0.258422
184	0xbe21af97	-0.15789638
185	0xbf36d4b4	-0.7141831
186	0xbdfca9ac	-0.1233705
187	0xbe558b55	-0.20853932
188	0xbe5ccf96	-0.21563563
189	0xbe507e7c	-0.2036075
190	0x3f103500	0.5633087
191	0x3eb55126	0.35413474
192	0x3ecfe0b7	0.4060113
193	0x3d5e44d2	0.05426485
194	0xbdaf550e	-0.08561145
195	0xbe0fb94f	-0.14035533
196	0xbe995933	-0.29950866
197	0x3efa792b	0.4892057
198	0x3ee3de74	0.44505656
199	0x3dd9a117	0.106264286
200	0xbdcdd68c	-0.10050687
201	0xbde6aaa5	-0.112630166
202	0x3f6b973f	0.9202766
203	0x3eb17539	0.34659746
204	0x3d4a5ad4	0.049403027
205	0xbe27e980	-0.16397667
206	0x3c889a62	0.016675178
207	0x3d66d970	0.05635971
208	0xbea17022	-0.31530863
209	0x3ea3b9c0	0.31977654
210	0xbe74ae23	-0.23894553
211	0xbdeb4fa3	-0.11489799
212	0xbe40a3cb	-0.18812482
213	0xbdc27517	-0.09494989
214	0x3e69de41	0.2283869
215	0x3e1fe484	0.15614516
216	0x3f13ed58	0.5778403
217	0xbca48b3d	-0.020085925
218	0xbda0e7d0	-0.07856715
219	0xbe4a9167	-0.19782029
220	0xbe8b3aeb	-0.27193388
221	0xbdb11d93	-0.08648219
222	0xbe845ec6	-0.25853556
223	0xbf2992a7	-0.662394
224	0x3f2a0968	0.664206
225	0xbe80c94a	-0.2515357
226	0x3dd3fbed	0.103507854
227	0xbe0d1ec6	-0.1378127
228	0x3f2b0754	0.66808057
229	0x3da6b266	0.081394956
230	0xbf38aec3	-0.72141665
231	0xbee0e6c0	-0.43926048
232	0x3f6ec349	0.9326673
233	0x3f11ca0a	0.5694891
234	0xbe969604	-0.29411328
235	0xbd4d226b	-0.05008165
236	0x3c40b006	0.011760717
237	0xbf23f69e	-0.6404818
238	0x3ef0b9af	0.47016665
239	0xbef4f653	-0.4784418

net.1.self_attn.out_proj.weight f4 [80, 80]
0	0xbdcc7886	-0.099839255
1	0xbe03dcfc	-0.12877268
2	0xbd879d74	-0.06621829
3	0x3e820719	0.2539604
4	0x3c9b1118	0.01892905
5	0xbe2e5abd	-0.17026801
6	0x3d54e0ac	0.051972076
7	0xbca82eed	-0.020530188
8	0x3d933b0a	0.07188995
9	0x3df980dc	0.12182781
10	0x3cdaa6f2	0.026690934
11	0x3d90086c	0.07032856
12	0xbe5933a1	-0.21211101
13	0xbdcabe43	-0.09899571
14	0xbe44c98f	-0.19217514
15	0xbaa9d503	-0.0012957159
16	0x3d2ccd65	0.042188067
17	0xbbc29767	-0.0059384587
18	0xbc44ead4	-0.012018878
19	0x3d572f03	0.05253507
20	0x3db619df	0.08891653
21	0x3db81839	0.08988995
22	0xbddf70a8	-0.10910159
23	0xbe952a0f	-0.2913365
24	0xbd19e716	-0.037573896
25	0xbd8686f9	-0.06568713
26	0xbe117cfb	-0.14207833
27	0x3c07dfa7	0.008293069
28	0xbe9ee23a	-0.31031972
29	0x3d8b47c8	0.068008006
30	0x3d59af9e	0.053145997
31	0x3ccd47c7	0.02505864
32	0x3d66084a	0.05616025
33	0x3dcf74ed	0.10129724
34	0xbc696284	-0.014244679
35	0x3d7c001c	0.06152354
36	0xbd8163f4	-0.06317893
37	0x3d396be7	0.04526892
38	0x3e0e9d77	0.13927256
39	0xbdae5675	-0.08512584
40	0x3d9d6c77	0.07686704
41	0xbd0c0f01	-0.034193996
42	0xbe3bc9cb	-0.18338697
43	0xbdc81ae5	-0.09770755
44	0xbeb17dff	-0.3466644
45	0x3e0ed240	0.13947392
46	0x3d83c7a4	0.06434563
47	0x3dd76c7d	0.10518739
48	0x3e448f9b	0.19195406
49	0xbdc71e54	-0.097225815
50	0x3e7fd487	0.24983416
51	0x3ce71bcc	0.028211497
52	0x3d978394	0.073981434
53	0x3e28b26a	0.1647431
54	0x3e4e9c3a	0.20176783
55	0xbd27f987	-0.041009452
56	0x3dabbfae	0.083861694
57	0x3c9f383f	0.019436
58	0xbea6b7e9	-0.32562187
59	0xbd34ccba	-0.044140555
60	0x3de49e51	0.11163009
61	0x3c43cc21	0.011950524
62	0xbd3d6397	-0.046237554
63	0x3e022032	0.12707594
64	0x3d9fdd7e	0.07805918
65	0xbd80b3e1	-0.06284309
66	0x3d8f7ac1	0.07005835
67	0x3de1cb29	0.11025078
68	0xba6fb149	-0.0009143544
69	0xbca30387	-0.019899143
70	0x3c8c6247	0.017136706
71	0x3dfa12f2	0.12210645
72	0xbd76f26f	-0.060289796
73	0x3d8d5bfe	0.06902312
74	0xbdc04b92	-0.09389414
75	0xbd2ee6af	-0.042700466
76	0x3cbccdf5	0.023047427
77	0x3d4860ee	0.048920564
78	0xbea16223	-0.31520185
79	0xbe7a5781	-0.24447443
80	0x3caa06e0	0.020755231
81	0x3ddbb2a0	0.107274294
82	0xbd37726e	-0.044786863
83	0xbe7dd3d1	-0.24787833
84	0x3eed6f9a	0.46374208
85	0xbe4f0766	-0.20217666
86	0xbc414a84	-0.011797551
87	0xbc844b21	-0.016149106
88	0xbd9b97fe	-0.075973496
89	0xbd69e368	-0.057101637
90	0x3d82893f	0.06373834
91	0xbd8f53d6	-0.06998412
92	0xbe3044ff	-0.1721382
93	0x3c836359	0.016038584
94	0x3e069dde	0.13146159
95	0xbe17f32a	-0.14838853
96	0x3e017430	0.12641978
97	0x3e2266a3	0.15859465
98	0x3d1c3cde	0.038143985
99	0xbd30c142	-0.043153055
100	0xbe31e6e5	-0.17373236
101	0xbd3b0865	-0.045662303
102	0x3cbdd9f2	0.023175213
103	0xbdaed7bf	-0.08537244
104	0x3e036b30	0.12833858
105	0x3e097372	0.13422945
106	0xbe0fc83c	-0.14041227
107	0xbc10c320	-0.008835584
108	0xbc56e226	-0.013115441
109	0x3de442ae	0.11145531
110	0xbd8510b4	-0.064973265
111	0xbd25730e	-0.040392928
112	0xbe226643	-0.15859322
113	0xbc5996b0	-0.013280556
114	0xbdba70d5	-0.09103552
115	0xbd56f0ba	-0.05247567
116	0xbe44e152	-0.19226578
117	0xbcb9cca6	-0.022680592
118	0x3d90bb46	0.070669696
119	0x3db3129d	0.087437846
120	0xbe0ff042	-0.14056495
121	0xbe1d5356	-0.15363821
122	0x3dc543f7	0.09632104
123	0x3ed7f874	0.42181742
124	0x3d15dd3c	0.03658794
125	0xbe0f6608	-0.14003766
126	0xbb583860	-0.0032992586
127	0x3e9a2ab1	0.30110696
128	0x3c11e000	0.008903503
129	0xbc8b3cbc	-0.016996734
130	0x3d91fcc0	0.07128286
131	0x3c7532b3	0.014965701
132	0xbb9897bc	-0.00465676
133	0xbdb311e0	-0.08743644
134	0x3df10116	0.11767785
135	0x3dc56ce7	0.09639912
136	0x3dab8ac7	0.08376079
137	0x3cfdb485	0.030969867
138	0xbd3753e9	-0.044757757
139	0x3e0292e9	0.12751354
140	0xbd2ea78b	-0.04264025
141	0x3de8d011	0.113678105
142	0x3dc055be	0.09391354
143	0xbe30b214	-0.17255431
144	0x3dde97ce	0.10868798
145	0x3c9732c1	0.018456819
146	0xbdac3593	-0.08408656
147	0x3c8dc041	0.017303588
148	0x3d3baec4	0.045820966
149	0x3c436d34	0.0119278915
150	0x3e6121c6	0.2198554
151	0xbddcf287	-0.10788446
152	0x3e9e479b	0.30914006
153	0xbdb1ed40	-0.0868783
154	0x3d777ad3	0.06041987
155	0x3baa14e9	0.005190481
156	0x3cc43b51	0.023954066
157	0xbeeab0d1	-0.45838025
158	0xbd7685c9	-0.06018618
159	0xbe258bc6	-0.161666
160	0x3e64d879	0.22348203
161	0x3cc63fb1	0.024200292
162	0xbb6b15c1	-0.003587112
163	0x3dd9ed54	0.1064097
164	0x3e8047a0	0.25054646
165	0x3dca7d4f	0.09887182
166	0xbc718ef7	-0.014743558
167	0x3c9b402f	0.018951504
168	0x3c2bdd46	0.010489767
169	0xbe282b65	-0.16422804
170	0x3e613d7c	0.2199611
171	0x3c21a5d4	0.009866197
172	0x3e2f8694	0.17141181
173	0xbdcc6d09	-0.09981734
174	0xbe09a0b0	-0.13440204
175	0xbe1b767c	-0.15181917
176	0xbdaead4c	-0.085291475
177	0x3d8a5d13	0.06756034
178	0x3c9242c1	0.017854096
179	0xbd337d28	-0.04382053
180	0x3c9f2bd9	0.019430088
181	0xbd404052	-0.04693634
182	0xba83face	-0.0010069252
183	0xbd514a60	-0.05109632
184	0xbcab7b35	-0.020932773
185	0xbda065c5	-0.07831911
186	0xbd0adecc	-0.033903882
187	0xbc1802f9	-0.0092780525
188	0x3bd8621d	0.006603493
189	0xbe7c109a	-0.24615708
190	0x3cbced12	0.023062263
191	0x3ccf9297	0.025338454
192	0xbe2d08a7	-0.16897832
193	0xbe27e928	-0.16397536
194	0x3d259c91	0.040432516
195	0x3e44675f	0.19180058
196	0xbce2c2f9	-0.02768086
197	0xbe50c091	-0.20385958
198	0xbd958a98	-0.07301825
199	0x3ec5a312	0.38600975
200	0x3caac822	0.020847384
201	0xbd3dfe60	-0.04638517
202	0x3d8687ab	0.06568845
203	0xbe10f0d7	-0.14154373
204	0x3c8c187b	0.017101517
205	0xbd79454a	-0.060857095
206	0x3c426e5b	0.011867131
207	0x3c3ac037	0.011398367
208	0x3c827854	0.015926518
209	0xbd0ab246	-0.03386142
210	0xbd5f5c3a	-0.054531313
211	0x3dfc9b9c	0.12334368
212	0xbb7aad4d	-0.0038250268
213	0xbd94c5c3	-0.072642826
214	0x3caaaa1f	0.020833073
215	0xbe54a527	-0.20766126
216	0x3c1df501	0.009640933
217	0xbe185f8e	-0.14880201
218	0xbd121720	-0.035666585
219	0xbc5663cc	-0.013085317
220	0x3ddecd5b	0.10879012
221	0x3e56ed8a	0.20989051
222	0x3d88d9df	0.066821806
223	0xbd02f03f	-0.031967398
224	0x3d8c2841	0.06843615
225	0x3cb39562	0.021921817
226	0xbe36c9c4	-0.17850405
227	0x3e479ea0	0.19494104
228	0xbc5be035	-0.013420154
229	0xbd16a63f	-0.03677964
230	0x3e9f0e65	0.3106567
231	0x3d39e31f	0.045382615
232	0x3da94085	0.08264259
233	0xbd5b29e2	-0.05350674
234	0x3e93a120	0.28833866
235	0xbcde43c1	-0.027131917
236	0xbd202b9d	-0.039104093
237	0xbdfd6259	-0.12372274
238	0xbc7f1c56	-0.015570721
239	0xbd9c3025	-0.0762637
240	0x3dcf2788	0.10114962
241	0x3b5a7992	0.0033336622
242	0xbc44e0e4	-0.012016509
243	0x3ddab60a	0.106792524
244	0x3dc2a0cf	0.09503328
245	0x3d1caed0	0.03825265
246	0xbc403612	-0.011731641
247	0x3bfdfdf2	0.00775122
248	0xbca667b8	-0.020313129
249	0x3b8d2401	0.0043072705
250	0xbdc8dd02	-0.09807779
251	0xbca3ab2b	-0.01997908
252	0x3e4b6cd4	0.19865733
253	0xbe113158	-0.1417898
254	0xbb9186e8	-0.004441131
255	0x3e2040ab	0.15649669

net.1.self_attn.out_proj.bias f4 [80]
0	0xbdc6731d	-0.09689925
1	0x3ed33fa6	0.41259497
2	0xbf00bf48	-0.5029187
3	0x3eccdddc	0.40013015
4	0x3e09d16d	0.13458796
5	0x3f273c77	0.6532664
6	0x3c63f36e	0.013913019
7	0xbe8372bd	-0.25673476
8	0x3cb437fe	0.021999355
9	0x3eafcb5e	0.34334844
10	0x3eb566a9	0.35429886
11	0xbeef3d45	-0.46726432
12	0xbe95aabc	-0.29231822
13	0x3efdc0cd	0.49561158
14	0x3e56a436	0.20961079
15	0x3ec190bd	0.3780574
16	0xbdf8697f	-0.12129497
17	0xbf1c3baf	-0.6102857
18	0xbe3a72c3	-0.1820784
19	0xbe969464	-0.29410088
20	0x3e644621	0.22292377
21	0x3be8cbcc	0.0071043726
22	0x3e48cd2a	0.19609514
23	0x3c5578af	0.0130292615
24	0x3e4f5b62	0.20249704
25	0xbe905800	-0.2819214
26	0xbdbbca60	-0.09169459
27	0xbc0c62ca	-0.008568475
28	0xbf38ceb1	-0.72190386
29	0x3e87d18c	0.2652706
30	0x3f2f6555	0.68513995
31	0xbdfc5953	-0.12321725
32	0x3ef1fc64	0.4726287
33	0xbdd763e9	-0.10517103
34	0x3f99a8c8	1.2004633
35	0xbede02e9	-0.43361595
36	0xbcd08659	-0.025454687
37	0xbe07cea1	-0.13262416
38	0xbf07d2a9	-0.53055817
39	0xbe6eb13c	-0.23309797
40	0x3e2b18f6	0.1670874
41	0x3da0ac70	0.0784539
42	0xbe89cd6b	-0.26914534
43	0x3e2f30d3	0.17108469
44	0x3f100853	0.562627
45	0xbec4fca0	-0.38473988
46	0xbf1328f7	-0.5748438
47	0xbebf7df1	-0.37400773
48	0xbc9fa808	-0.019489303
49	0x3e4cf43a	0.2001504
50	0x3f029d4f	0.51021284
51	0x3f452494	0.7700894
52	0x3e564f22	0.20928624
53	0x3da5b97d	0.0809202
54	0xbea688d3	-0.32526264
55	0xbeb511a8	-0.35365033
56	0x3ea132df	0.31484124
57	0xbe0d1034	-0.13775712
58	0xbe1c12b8	-0.15241516
59	0xbebb7de4	-0.36619484
60	0x3f874783	1.0568699
61	0x3e868cd4	0.26279318
62	0xbf13ac56	-0.5768484
63	0xbda2a45c	-0.07941505
64	0x3da3a3f9	0.0799026
65	0x3d8f08cb	0.06984099
66	0xbd906cbb	-0.07051989
67	0xbe833e5e	-0.2563352
68	0x3e16aa07	0.14713298
69	0x3f232238	0.6372409
70	0x3ee42d72	0.44565922
71	0xbe7823a1	-0.24232341
72	0x3efce1b3	0.49390945
73	0x3e8dba6c	0.2768129
74	0x3eb3077e	0.34966654
75	0x3b5c02fb	0.0033571112
76	0xbf527b82	-0.8221971
77	0xbf07b14c	-0.5300491
78	0xbda0e901	-0.07856942
79	0xbe303e8f	-0.17211364

net.1.linear1.weight f4 [256, 80]
0	0xbd158016	-0.036499105
1	0xbdc76bff	-0.097373955
2	0x3cbd9a58	0.023144886
3	0x3e89eb3a	0.26937276
4	0x3e2ba996	0.1676391
5	0x3de1134b	0.10990008
6	0x3d749e80	0.05972147
7	0x3e272658	0.1632322
8	0xbe14d5b0	-0.1453464
9	0xbea3e3a7	-0.32009622
10	0x3e960a5e	0.29304785
11	0xbb86741f	-0.004103198
12	0xbe2376e1	-0.15963317
13	0x3ac8da5b	0.0015323864
14	0x3e29a928	0.16568434
15	0x3da5bc99	0.08092613
16	0xbdb95948	-0.09050232
17	0xbcab47f8	-0.02090834
18	0x3d1547dd	0.036445487
19	0xbe075205	-0.13214882
20	0xbbe7a746	-0.007069501
21	0xbdcd04d7	-0.10010689
22	0xbd71fc21	-0.05907834
23	0x3f25685b	0.6461236
24	0x3e8262a6	0.25465888
25	0x3e61cbf5	0.2205046
26	0x3e243886	0.16037187
27	0xbe349bc7	-0.1763755
28	0x3e3d5852	0.18490723
29	0xbdd6ad16	-0.10482232
30	0x3da9f27e	0.08298205
31	0x3d8f4659	0.069958396
32	0xbeb70610	-0.35746813
33	0x3e09068a	0.133814
34	0xbea5edfd	-0.32408133
35	0xbd174180	-0.0369277
36	0xbd1e62b9	-0.038668368
37	0xbcb059bc	-0.021527164
38	0x3e0b7849	0.13620104
39	0x3e3369a6	0.1752077
40	0xbdbb17e4	-0.09135416
41	0x3d8a9fb2	0.06768741
42	0x3e595884	0.21225172
43	0x3dd600a4	0.10449341
44	0x3d6acc1a	0.057323553
45	0x3e8d0cca	0.2754882
46	0x3dc1eef6	0.09469406
47	0x3df04f24	0.11733845
48	0x3de3aa40	0.11116457
49	0xbe30b04a	-0.17254749
50	0xbe517d6f	-0.20458005
51	0x3da46c98	0.08028525
52	0xbe750a1b	-0.23929636
53	0x3dd9879a	0.10621567
54	0x3d4a9f86	0.04946854
55	0xbe281572	-0.1641443
56	0x3e66b452	0.22529724
57	0xbda9cf22	-0.082914606
58	0x3e3a6257	0.18201576
59	0x3ca82b9c	0.020528607
60	0xbd581ad8	-0.052759975
61	0xbcc2cb18	-0.023778483
62	0x3cc3de54	0.023909725
63	0xbd1180de	-0.035523288
64	0xbebed999	-0.3727539
65	0xbe97f9b7	-0.29682705
66	0xbd950b3d	-0.07277534
67	0xbc338cdf	-0.010958879
68	0xbede4f9e	-0.43420118
69	0xbe778a96	-0.2417396
70	0xbe2a20b5	-0.16614039
71	0xbe493de2	-0.19652513
72	0xbe0ced40	-0.13762379
73	0x3daa5c02	0.0831833
74	0xbe406373	-0.18787937
75	0xbe438a3c	-0.19095701
76	0xbe794267	-0.24341737
77	0x3c3cc985	0.011522655
78	0x3e1ab7a6	0.15109119
79	0xbdddc071	-0.10827721
80	0x3ea0aa53	0.31379947
81	0xbde7c91c	-0.113176554
82	0xbea0a48f	-0.31375548
83	0xbe5b9cd4	-0.21446544
84	0x3edb79e4	0.42866433
85	0xbdb1786b	-0.08665546
86	0xbe60adc0	-0.2194128
87	0xbdb7cf99	-0.08975143
88	0x3e2f77d1	0.1713555
89	0x3da00f4c	0.07815418
90	0xbe98d4eb	-0.29849944
91	0x3dffa3d7	0.12482422
92	0x3db07d6e	0.08617674
93	0xbece1ca2	-0.4025622
94	0x3d9bc54a	0.07605989
95	0x3da63270	0.08115089
96	0xbeab9685	-0.33513275
97	0x3e81105f	0.25207803
98	0xbe277967	-0.16354905
99	0xbea56bde	-0.3230886
100	0xbe7a19bb	-0.24423878
101	0x3caa2e02	0.020773891
102	0x3d0c1d6f	0.034207758
103	0x3d986c00	0.07442474
104	0x3d22ad7d	0.039716233
105	0x3da6bcfd	0.081415154
106	0xbd90f51d	-0.07078002
107	0x3ef48b3c	0.47762477
108	0x3e2e8b71	0.1704538
109	0xbe0e85d2	-0.13918236
110	0xbd39d9d0	-0.045373738
111	0xbdfeb9ef	-0.12437808
112	0xbea02f6e	-0.31286186
113	0x3e4bee74	0.19915181
114	0x3d5d0805	0.053962726
115	0xbd8daaf7	-0.069173746
116	0x3cc8a0f6	0.024490815
117	0x3ef152cd	0.47133484
118	0x3d066b00	0.032816887
119	0xbce88ae7	-0.028386546
120	0x3da71de3	0.08159997
121	0x3be34806	0.006936076
122	0x3dfa0240	0.122074604
123	0xbd84eedc	-0.06490871
124	0xbed35e9c	-0.4128312
125	0x3d585ec9	0.05282477
126	0xbe709ab7	-0.23496519
127	0x3eba3bce	0.36373752
128	0x3e49ab7d	0.19694324
129	0xbee4af7b	-0.4466513
130	0xbe37b6ee	-0.17940876
131	0x3e615fd5	0.22009213
132	0x3deb7fd6	0.11498992
133	0x3daffc96	0.08593099
134	0x3d91a499	0.07111473
135	0x3d01e23d	0.0317099
136	0x3eae856e	0.34086174
137	0x3e3f3f89	0.1867658
138	0x3d929c12	0.07158674
139	0xbe75ba9b	-0.23996966
140	0x3d3f8705	0.046759624
141	0x3e245090	0.16046357
142	0xbdcf31f9	-0.101169534
143	0x3e11c4f7	0.14235292
144	0xbda782e3	-0.081792615
145	0xbe62bdec	-0.22142762
146	0x3d50cabf	0.050974604
147	0xbe3401ec	-0.17578858
148	0x3d635fd8	0.055511326
149	0xbca28127	-0.019836975
150	0xbc68f07a	-0.01421749
151	0xbe5d0fcb	-0.21588056
152	0xbd1463e2	-0.03622807
153	0x3ec2ddc3	0.38059816
154	0xbe208890	-0.15677094
155	0xbd9a8c3f	-0.07546281
156	0xbd914248	-0.0709272
157	0x3dc3f37b	0.095679246
158	0x3f15eb47	0.5856213
159	0x3df073a7	0.11740809
160	0xbe1c341e	-0.15254256
161	0xbd316e19	-0.043317888
162	0xbe1125fb	-0.14174645
163	0xbdb27e21	-0.087154634
164	0xbd114a59	-0.035471294
165	0x3d4ffa98	0.050776094
166	0x3e71f85d	0.236299
167	0xbd8aa1af	-0.0676912
168	0xbdd2e184	-0.1029692
169	0x3e1f4fa6	0.15557727
170	0xbdb7d227	-0.0897563
171	0xbe0f793b	-0.1401109
172	0xbed793e1	-0.4210501
173	0xbe8bd3c4	-0.27310002
174	0xbe0c702e	-0.13714668
175	0x3f0523ae	0.5200757
176	0xbd82b884	-0.0638285
177	0xbe3b4de0	-0.18291426
178	0xbcec63b5	-0.028856138
179	0x3db5063a	0.08839078
180	0x3dbfc103	0.09362986
181	0x3eea07ca	0.45709068
182	0x3e9cc720	0.3062067
183	0x3e41aa3a	0.18912593
184	0xbdb2ef36	-0.08737032
185	0x3eb72461	0.35769942
186	0xbe0359e9	-0.12827267
187	0x3e096e69	0.13421024
188	0xbc23b138	-0.009990983
189	0xbbcb5f22	-0.006206409
190	0xbe6c26bc	-0.23061651
191	0x3f06b376	0.52617586
192	0x3dcf20be	0.10113667
193	0x3e406ed8	0.18792284
194	0x3cc80e6f	0.024420945
195	0x3da88352	0.08228172
196	0xbee34cdf	-0.44394585
197	0xbe77107f	-0.24127387
198	0xbd563a5a	-0.052301742
199	0xbd7c8425	-0.06164946
200	0xbd6d8686	-0.05798962
201	0x3e43157d	0.19051166
202	0xbd1b57e8	-0.03792563
203	0xbaaa6555	-0.001300017
204	0x3e3516cf	0.17684482
205	0x3d10ab2f	0.035319503
206	0xbb14201d	-0.0022602149
207	0x3e9977fa	0.29974347
208	0x3d104b44	0.03522803
209	0x3e855291	0.26039556
210	0x3df6bb11	0.12047399
211	0xbdff70c3	-0.124726795
212	0x3e9f93d8	0.31167483
213	0x3e4f13bf	0.20222376
214	0x3e2dbbc7	0.16966163
215	0xbde17386	-0.110083625
216	0xbe5c7564	-0.21529156
217	0xbe50e872	-0.20401171
218	0xbe290aeb	-0.16508071
219	0x3cf3aed6	0.029746454
220	0xbe370cf1	-0.1787603
221	0xbe493121	-0.19647647
222	0x3d69ed46	0.057111047
223	0xbdf4734e	-0.11936055
224	0x3d43d6e2	0.04781235
225	0x3e343977	0.17600046
226	0xbe5d9c28	-0.216416
227	0x3e777032	0.24163893
228	0xbe0adb3f	-0.13560198
229	0xbf1b3633	-0.60629576
230	0x3ddbe386	0.10736756
231	0x3d27a2e2	0.04092682
232	0xbd592a9a	-0.053019144
233	0x3e9c5289	0.3053172
234	0xbce7f3b1	-0.028314443
235	0xbd904368	-0.07044107
236	0x3e143d6a	0.14476553
237	0x3cc26e3c	0.023734204
238	0x3d56a5ab	0.052404087
239	0x3ebce15c	0.36890686
240	0xbcd657c1	-0.026164891
241	0xbdcf07c8	-0.10108906
242	0x3d25c3a2	0.040469773
243	0xbe423c36	-0.18968281
244	0x3d96e168	0.073672116
245	0xbdf3697d	-0.11885355
246	0xbe1531b3	-0.1456974
247	0x3c0d4f19	0.008624815
248	0xbd05a780	-0.032630444
249	0x3cb7bb87	0.022428287
250	0xbcbf5856	-0.023357552
251	0x3e36f9b7	0.17868696
252	0x3e14b05f	0.14520405
253	0xbe90acec	-0.2825693
254	0x3e0e1394	0.13874656
255	0x3d0ff773	0.035148095

net.1.linear1.bias f4 [256]
0	0xbe35ff3b	-0.17773144
1	0xbe2e9d4d	-0.17052193
2	0xbe3f60c3	-0.18689255
3	0xbe45a0e1	-0.19299652
4	0xbe2d7b1d	-0.16941495
5	0xbe5a6bf8	-0.2133025
6	0xbdf88b0b	-0.12135895
7	0xbdd6395c	-0.10460159
8	0xbe28dfdc	-0.16491646
9	0xbe617be7	-0.22019921
10	0xbd90b91f	-0.07066559
11	0xbe13136e	-0.1436288
12	0xbdfa76b1	-0.1222967
13	0xbe42cb3a	-0.19022837
14	0xbe0be966	-0.13663253
15	0xbe53c02c	-0.20678777
16	0xbdea9aff	-0.114553444
17	0xbe6e1c2e	-0.23252937
18	0xbe30c7e1	-0.17263748
19	0xbdf6765a	-0.120342925
20	0xbe08f627	-0.1337515
21	0xbdff25d0	-0.12458384
22	0xbdd56842	-0.10420276
23	0xbe5a1e28	-0.21300566
24	0xbe534bb4	-0.20634347
25	0xbe61dfb1	-0.22057988
26	0xbe0bcf9a	-0.13653412
27	0xbe085e88	-0.13317311
28	0xbe29b69e	-0.16573569
29	0xbe8d93b2	-0.27651745
30	0xbe37b134	-0.17938691
31	0xbe35c6c8	-0.1775161
32	0xbd9e8392	-0.07739939
33	0xbe4c97a3	-0.1997972
34	0xbe28f8b4	-0.16501123
35	0xbdf73ad5	-0.12071768
36	0xbde3b2e8	-0.11118108
37	0xbe1a7623	-0.15084128
38	0xbdf698a0	-0.1204083
39	0xbe46ebb9	-0.19425859
40	0xbe12a8b0	-0.14322162
41	0xbe3e9e94	-0.1861518
42	0xbe333316	-0.17499956
43	0xbdb097ca	-0.086227015
44	0xbdeeedaa	-0.116664246
45	0xbe0799b2	-0.13242224
46	0xbe245222	-0.16046956
47	0xbe80bc56	-0.2514369
48	0xbde914e6	-0.11380939
49	0xbe24292c	-0.16031331
50	0xbe187e9a	-0.14892045
51	0xbdc8d59a	-0.09806366
52	0xbe0d9e17	-0.13829838
53	0xbe444516	-0.19166979
54	0xbe11053a	-0.1416215
55	0xbe6278e4	-0.22116429
56	0xbe63601d	-0.22204633
57	0xbe36a860	-0.17837667
58	0xbe04b0e0	-0.12958097
59	0xbdd4b40a	-0.10385902
60	0xbe261094	-0.16217262
61	0xbe273bb3	-0.16331367
62	0xbd0ae57d	-0.033910263
63	0xbe177811	-0.14791895
64	0xbe0b6f8e	-0.13616773
65	0xbe45c190	-0.1931212
66	0xbd9163ae	-0.070990905
67	0xbe735039	-0.23761071
68	0xbe5b5547	-0.2141925
69	0xbe0d7574	-0.13814336
70	0xbe24960e	-0.16072866
71	0xbe478510	-0.19484353
72	0xbe5929c0	-0.21207333
73	0xbe26536d	-0.16242762
74	0xbe2d6881	-0.16934396
75	0xbe13a807	-0.14419566
76	0xbe2181fe	-0.15772244
77	0xbe7b6892	-0.24551609
78	0xbe16888c	-0.14700526
79	0xbe0a86fd	-0.13528056
80	0xbe14a6ce	-0.14516756
81	0xbd24f989	-0.040277038
82	0xbe2ce1fc	-0.16883081
83	0xbe48ab0d	-0.195965
84	0xbe8c56fc	-0.27410114
85	0xbe277ffc	-0.16357416
86	0xbe2fc648	-0.17165482
87	0xbe259115	-0.16168626
88	0xbdfd83d9	-0.123786636
89	0xbe10752e	-0.141072
90	0xbe1d0fea	-0.15338102
91	0xbdf4cf4a	-0.119536
92	0xbe369446	-0.1783
93	0xbe37b8a1	-0.17941524
94	0xbe23cd7a	-0.15996352
95	0xbe4b906b	-0.1987931
96	0xbe3f18d8	-0.18661821
97	0xbe50441f	-0.20338486
98	0xbe086d28	-0.1332289
99	0xbe142e1d	-0.14470716
100	0xbe593642	-0.21212104
101	0xbdeba1d6	-0.11505477
102	0xbe2f5b41	-0.17124654
103	0xbe23fa40	-0.16013432
104	0xbe14d9f9	-0.14536275
105	0xbe14c50d	-0.14528294
106	0xbde36d6e	-0.111048564
107	0xbddd2a95	-0.107991375
108	0xbddd1520	-0.10795045
109	0xbe3256e1	-0.17415954
110	0xbe555ce5	-0.20836218
111	0xbe2ad1a8	-0.1668154
112	0xbe2555e6	-0.16146049
113	0xbe06d4dc	-0.13167137
114	0xbd50cc04	-0.050975814
115	0xbd744ef5	-0.05964561
116	0xbe366f9c	-0.17816013
117	0xbe106079	-0.14099301
118	0xbdbaf0e5	-0.09127978
119	0xbe488014	-0.19580108
120	0xbe2a77ef	-0.16647314
121	0xbe7fddb4	-0.24986917
122	0xbd9677d6	-0.07347076
123	0xbe229649	-0.15877642
124	0xbe74b065	-0.23895414
125	0xbe2c45c8	-0.16823494
126	0xbe44caaf	-0.19217943
127	0xbdb6e617	-0.08930605
128	0xbdfd5579	-0.12369818
129	0xbe000a33	-0.1250389
130	0xbe2842fd	-0.16431804
131	0xbe1c974a	-0.15292087
132	0xbe470383	-0.19434933
133	0xbe374848	-0.17898667
134	0xbe94a1c6	-0.29029673
135	0xbe47150b	-0.19441621
136	0xbe4776c0	-0.19478893
137	0xbdf28d04	-0.11843303
138	0xbe2e0074	-0.1699236
139	0xbe0968bf	-0.13418864
140	0xbe1aa364	-0.15101391
141	0xbe2381a8	-0.15967429
142	0xbe2b5f8e	-0.1673567
143	0xbe11a964	-0.14224774
144	0xbe364a8e	-0.17801878
145	0xbdf27914	-0.118395
146	0xbe481136	-0.19537815
147	0xbe63bbf6	-0.2223967
148	0xbe895bf7	-0.26827976
149	0xbe2d102e	-0.16900703
150	0xbe819f17	-0.25316688
151	0xbe2b638d	-0.16737194
152	0xbe7b8b09	-0.24564756
153	0xbe31bc55	-0.17356999
154	0xbde80eee	-0.113309726
155	0xbe0115f9	-0.12606038
156	0xbe2134a7	-0.15742742
157	0xbe324068	-0.17407382
158	0xbe1bd763	-0.15218882
159	0xbd891791	-0.06693948
160	0xbe070cea	-0.1318852
161	0xbe23ff1e	-0.16015288
162	0xbe478775	-0.19485267
163	0xbe1f2d8e	-0.15544721
164	0xbe4323c8	-0.19056618
165	0xbe27119a	-0.16315308
166	0xbe1cb73b	-0.15304272
167	0xbe3f2962	-0.1866813
168	0xbe34eb02	-0.17667773
169	0xbe26ea21	-0.1630025
170	0xbe128ee5	-0.14312322
171	0xbe1534e1	-0.14570953
172	0xbe5148af	-0.20437883
173	0xbd9f4bad	-0.07778106
174	0xbe767ac0	-0.24070263
175	0xbe4c05c5	-0.19924076
176	0xbe631f17	-0.22179829
177	0xbd5a9fd3	-0.053375077
178	0xbe130931	-0.14358975
179	0xbe1ee55d	-0.15517183
180	0xbe4698dd	-0.1939425
181	0xbe26e8a4	-0.16299683
182	0xbe3b1abb	-0.18271916
183	0xbe09dfe3	-0.13464312
184	0xbdeb3b0d	-0.114858724
185	0xbe18b56f	-0.14912961
186	0xbe07d271	-0.13263871
187	0xbd9245ee	-0.07142244
188	0xbe6099e9	-0.21933712
189	0xbe061dd2	-0.13097313
190	0xbe668050	-0.22509885
191	0xbe3e3385	-0.1857434
192	0xbe02795a	-0.12741604
193	0xbe17fee5	-0.14843328
194	0xbe1d9ba3	-0.15391402
195	0xbdb568fa	-0.08857913
196	0xbde86201	-0.11346818
197	0xbe650341	-0.22364523
198	0xbd4e223e	-0.050325625
199	0xbe137c29	-0.14402832
200	0xbdea36e0	-0.11436248
201	0xbe4f3040	-0.2023325
202	0xbdc5e24b	-0.096623026
203	0xbe32a27e	-0.17444798
204	0xbe4b386c	-0.19845742
205	0xbe6b70ef	-0.229923
206	0xbe09dbc7	-0.13462745
207	0xbdfb7bf7	-0.12279504
208	0xbe4c7b3d	-0.19968887
209	0xbe1ef87e	-0.1552448
210	0xbdd62e79	-0.10458083
211	0xbe16d707	-0.14730464
212	0xbe20261e	-0.1563954
213	0xbe1f5629	-0.15560211
214	0xbe6b34d8	-0.22969377
215	0xbe99e334	-0.30056155
216	0xbe179957	-0.14804588
217	0xbe0813f1	-0.13288857
218	0xbddca266	-0.107731625
219	0xbe095915	-0.13412888
220	0xbe19a89e	-0.15005729
221	0xbe00d74b	-0.12582128
222	0xbe08f280	-0.13373756
223	0xbd5844e0	-0.05280006
224	0xbe54c190	-0.20776963
225	0xbdf4d1f4	-0.11954108
226	0xbe2fb1a8	-0.17157614
227	0xbe09857d	-0.13429828
228	0xbe6e2d1a	-0.23259392
229	0xbe04c3d8	-0.12965333
230	0xbe38e609	-0.18056501
231	0xbe40ae23	-0.18816428
232	0xbe304433	-0.17213516
233	0xbe3e39f4	-0.18576795
234	0xbe5028b1	-0.20328023
235	0xbd9e8a5a	-0.07741232
236	0xbe576c8c	-0.21037501
237	0xbe3cd95d	-0.18442293
238	0xbe4fb308	-0.20283139
239	0xbe3377eb	-0.17526214
240	0xbe2dfcd4	-0.16990978
241	0xbde15f8b	-0.110045515
242	0xbe747ea1	-0.2387643
243	0xbe342893	-0.17593603
244	0xbe1121cc	-0.14173049
245	0xbe24055a	-0.16017666
246	0xbe4c9079	-0.19976987
247	0xbd9a22e2	-0.075261846
248	0xbe04c623	-0.12966208
249	0xbe7cd158	-0.24689233
250	0xbe913212	-0.28358513
251	0xbe62c89f	-0.22146843
252	0xbdcba7a4	-0.09944084
253	0xbe06fb71	-0.13181855
254	0xbe58bc76	-0.21165642
255	0xbe2f2136	-0.17102513
